…
    "papermill": {
     "duration": 0.084845,
     "end_time": "2023-08-28T04:42:51.105526",
     "exception": false,
     "start_time": "2023-08-28T04:42:51.020681",
     "status": "completed"
    },
    "tags": []
   },
   "outputs": [
    {
     "name": "stdout",
     "output_type": "stream",
     "text": [
      "Model: \"sequential\"\n",
      "_________________________________________________________________\n",
      " Layer (type)                Output Shape              Param #   \n",
      "=================================================================\n",
      " conv2d (Conv2D)             (None, 222, 222, 32)      896       \n",
      "                                                                 \n",
      " max_pooling2d (MaxPooling2D  (None, 111, 111, 32)     0         \n",
      " )                                                               \n",
      "                                                                 \n",
      " conv2d_1 (Conv2D)           (None, 109, 109, 64)      18496     \n",
      "                                                                 \n",
      " max_pooling2d_1 (MaxPooling  (None, 54, 54, 64)       0         \n",
      " 2D)                                                             \n",
      "                                                                 \n",
      " conv2d_2 (Conv2D)           (None, 52, 52, 64)        36928     \n",
      "                                                                 \n",
      " max_pooling2d_2 (MaxPooling  (None, 26, 26, 64)       0         \n",
      " 2D)                                                             \n",
      "                                                                 \n",
      " conv2d_3 (Conv2D)           (None, 24, 24, 64)        36928     \n",
      "                                                                 \n",
      " max_pooling2d_3 (MaxPooling  (None, 12, 12, 64)       0         \n",
      " 2D)                                                             \n",
      "                                                                 \n",
      " conv2d_4 (Conv2D)           (None, 10, 10, 64)        36928     \n",
      "                                                                 \n",
      " max_pooling2d_4 (MaxPooling  (None, 5, 5, 64)         0         \n",
      " 2D)                                                             \n",
      "                                                                 \n",
      " conv2d_5 (Conv2D)           (None, 3, 3, 64)          36928     \n",
      "                                                                 \n",
      " max_pooling2d_5 (MaxPooling  (None, 1, 1, 64)         0         \n",
      " 2D)                                                             \n",
      "                                                                 \n",
      " flatten (Flatten)           (None, 64)                0         \n",
      "                                                                 \n",
      " dense (Dense)               (None, 64)                4160      \n",
      "                                                                 \n",
      " dense_1 (Dense)             (None, 10)                650       \n",
      "                                                                 \n",
      "=================================================================\n",
      "Total params: 171,914\n",
      "Trainable params: 171,914\n",
      "Non-trainable params: 0\n",
      "_________________________________________________________________\n"
     ]
    }
   ],
   "source": [
    "cnn.summary()"
…
